data_exchange_center/offline/recall/fm.pt (torch, 642042 bytes, 2 tensors)

weight f4 [6041, 16]
0.0105962735 -0.015373424 -0.0060660387 -0.017282067 0.030999087 0.01047486 0.025187213 -0.027622093
0.0313089 0.029629227 -0.023497669 -0.013971703 0.024015982 -0.018223502 0.001682419 -0.014930607
0.42986584 -0.24255635 0.4837699 -0.44894823 0.09356653 0.2846734 -0.12058319 0.28171828
-0.3292166 -0.1870035 -0.31109807 0.15504101 0.031174116 -0.56652576 -0.41552493 0.40243125
0.1454588 -0.057091415 -0.05773604 -0.16380164 0.13968472 0.008827991 0.18583362 0.15371941
-0.034492455 -0.1713955 -0.6584368 0.16398409 0.35251918 -0.17107032 -0.25568512 0.4055346
0.32808372 -0.08205135 0.45194405 -0.3927003 0.13371769 0.024937592 -0.01496142 0.25361487
-0.21581237 -0.090486936 -0.23280756 0.16979982 -0.06758241 -0.55651635 -0.4122518 0.22471477
0.11050639 -0.06932208 0.07608814 -0.05050666 0.07715614 0.33690086 -0.25513756 0.07124192
-0.017387098 -0.23106751 -0.25086734 0.08741864 0.22142284 -0.18413064 -0.06377222 0.13425758
0.026238568 -0.394185 -0.22666411 0.29457748 0.2889739 0.13477609 -0.69482595 0.12700824
-0.0052575753 -0.67826086 0.2825217 0.14253692 0.3555361 0.58411837 0.14374894 -0.26396337
0.24327093 -0.028314099 0.022623142 -0.20053783 -0.17146908 0.020267097 -0.01828828 -0.08760049
-0.031420507 -0.09522699 -0.73696685 -0.09662285 -0.21552286 -0.5867485 -0.21334426 0.01599054
0.27610868 -0.06756818 0.19216397 -0.31905714 0.08638337 0.20533955 0.012549749 0.21306436
-0.28194088 -0.27276018 -0.1700497 0.11660804 0.05245542 -0.40475684 -0.30670342 0.20273614
0.2662496 -0.1925474 0.24877898 -0.2286222 0.13394593 0.17860623 -0.19082901 0.2795562
-0.28246325 -0.2121677 0.24921688 0.40542346 0.18280283 -0.10960891 -0.24571793 0.2744311
0.12844464 -0.22159155 0.1596002 -0.09542021 0.49352586 0.39313197 -0.18742347 0.25668192
-0.28699318 -0.31792328 0.228157 0.45528573 0.41860873 0.075378574 -0.18876614 0.11233472
0.3557112 -0.009636725 0.45494455 -0.5047195 -0.18450594 -0.11263963 0.16541815 0.14602107
-0.35744596 0.0724228 -0.55268556 -0.11751621 -0.41426432 -0.29897335 -0.613587 0.20376597
-0.23644373 -0.4039749 -0.053730033 0.075860575 0.5416219 0.2299293 -0.38367495 0.2830753
-0.043963484 -0.21548319 0.212285 0.56974053 0.7469124 0.4242095 0.08147458 0.030935144
0.25604033 -0.41732386 0.15440497 -0.15401189 0.23343642 0.27526584 -0.27684674 0.3407712
-0.14881039 -0.28143257 -0.25702733 0.40615523 0.5006903 -0.0068004173 -0.2051244 0.29074597
-0.07944333 -0.31636938 -0.20295732 0.07738811 0.6596969 0.35967818 -0.1325975 0.24907248
0.071652345 -0.27331525 -0.3045186 0.5466758 0.39623496 0.17616306 0.009118457 0.38385332
-0.28990942 -0.05773985 -0.40508753 0.34804004 0.037851337 -0.06028903 0.051876936 0.059667584
-0.0009909866 -0.15704952 -0.1982547 0.17180043 0.24996856 0.3874519 0.052480128 -0.29899767
0.12261829 -0.015150961 -0.11768292 0.0015030946 0.39977854 0.34805533 0.06241664 0.17308249
-0.15578218 -0.1901951 -0.28330857 0.3088065 0.44181615 -0.33410984 -0.13306844 0.683738
00000000: fe9b 2d3c d0e0 7bbc 9fc5 c6bb 1f93 8dbc
00000010: ccf1 fd3c bf9e 2b3c 6a55 ce3c ba47 e2bc
00000020: c33d 003d feb8 f23c 2f7e c0bc 92e9 64bc
00000030: 2abd c43c 7449 95bc 9d84 dc3a 819f 74bc
00000040: 6017 dc3e b160 78be b0b0 f73e 8bdc e5be
00000050: cf9f bf3d b6c0 913e 52f4 f6bd 613d 903e
00000060: 148f a8be d87d 3fbe 3f48 9fbe 12c3 1e3e
00000070: dc60 ff3c d507 11bf afbf d4be 780b ce3e
00000080: 27f3 143e b0d8 69bd a07c 6cbd 9ebb 27be
00000090: 8309 0f3e 47a3 103c 2b4b 3e3e 9f68 1d3e
000000a0: f647 0dbd 4d82 2fbe 508f 28bf 72eb 273e
000000b0: 657d b43e 0f2d 2fbe 29e9 82be 3ba2 cf3e
000000c0: 97fa a73e 8a0a a8bd 3665 e73e 0410 c9be
000000d0: 4aed 083e ec49 cc3c be20 75bc cfd9 813e
000000e0: ebfd 5cbe 3751 b9bd 1b65 6ebe 01e0 2d3e
000000f0: a668 8abd db77 0ebf ab12 d3be a11b 663e
00000100: 2d51 e23d bcf8 8dbd 19d4 9b3d 12e0 4ebd
00000110: 0a04 9e3d 457e ac3e 64a1 82be 49e7 913d
00000120: 636f 8ebc f69c 6cbe af71 80be 8b08 b33d
00000130: abbc 623e be8c 3cbe 029b 82bd d27a 093e
00000140: 44f2 d63c 9ed2 c9be a31a 68be dcd2 963e
00000150: 63f4 933e be02 0a3e 1de0 31bf 730e 023e
00000160: bd47 acbb 81a2 2dbf afa6 903e 33f5 113e
00000170: d408 b63e c888 153f ec32 133e 3526 87be
00000180: 041c 793e f8f2 e7bc 2b54 b93c ca59 4dbe
00000190: 9795 2fbe 2f07 a63c 4ed1 95bc e367 b3bd
000001a0: cab2 00bd 5e06 c3bd dca9 3cbf 33e2 c5bd
000001b0: 06b2 5cbe 2635 16bf eb76 5abe 98fe 823c
000001c0: 1e5e 8d3e 3061 8abd a2c6 443e 755b a3be
000001d0: c4e9 b03d 8844 523e 769d 4d3c 8b2d 5a3e
000001e0: 8e5a 90be 39a7 8bbe 8221 2ebe 32d0 ee3d
000001f0: 7fdb 563d 4a3c cfbe 3b08 9dbe 109a 4f3e
00000200: de51 883e 252b 45be ebbf 7e3e f01b 6abe
00000210: 1f29 093e 8de4 363e ae68 43be fe21 8f3e
00000220: 069f 90be 7d42 59be b632 7f3e aa93 cf3e
00000230: aa30 3b3e a37a e0bd 7b9d 7bbe 3c82 8c3e
00000240: fe86 033e e5e8 62be 3c6e 233e ac6b c3bd
00000250: 6caf fc3e 9848 c93e f0eb 3fbe d06b 833e
00000260: c5f0 92be d7c6 a2be fda1 693e 361b e93e
00000270: e253 d63e 1560 9a3d e94b 41be bf0f e63d
00000280: c71f b63e 5be3 1dbc 7eee e83e 4c35 01bf
00000290: 20ef 3cbe 9baf e6bd 6063 293e 8c86 153e
000002a0: 2803 b7be 6852 943d cd7c 0dbf 57ac f0bd
000002b0: 741a d4be 0913 99be 0a14 1dbf 07a8 503e
000002c0: 4e1e 72be ccd5 cebe 0614 5cbd ca5c 9b3d
000002d0: bca7 0a3f 9672 6b3e 0b71 c4be 3fef 903e
000002e0: 0e13 34bd a0a7 5cbe 3d61 593e 84da 113f
000002f0: a735 3f3f fd31 d93e 25dc a63d b36b fd3c
00000300: b817 833e 79ab d5be 561c 1e3e 4bb5 1dbe
00000310: f509 6f3e a5ef 8c3e dbbe 8dbe 9079 ae3e
00000320: c061 18be ee17 90be 1699 83be 94f3 cf3e
00000330: 3d2d 003f 09d6 debb 210c 52be a8dc 943e
00000340: 2fb3 a2bd 2bfb a1be 0bd4 4fbe a87d 9e3d
00000350: e5e1 283f bd27 b83e a4c7 07be db0c 7f3e
00000360: 77be 923d faef 8bbe dde9 9bbe f2f2 0b3f
00000370: 4fdf ca3e 1764 343e 9565 153c 6c88 c43e
00000380: 026f 94be 9f80 6cbd a267 cfbe 4e32 b23e
00000390: 010a 1b3d a1f1 76bd e97c 543d ff65 743d
000003a0: fee3 81ba 97d1 20be 4803 4bbe 74ec 2f3e
000003b0: c2f7 7f3e 1860 c63e 67f5 563d 3916 99be
000003c0: 4c1f fb3d bc3b 78bc be03 f1bd 7c03 c53a
000003d0: c6af cc3e 4f34 b23e 97a8 7f3d 893c 313e
000003e0: 5d85 1fbe 81c2 42be d20d 91be e31b 9e3e
000003f0: ba35 e23e 7210 abbe 1843 08be 7409 2f3f

weight f4 [3953, 16]
0.020694833 -0.014257633 0.018960876 0.03556584 0.0355609 -0.0038974748 0.0047366465 0.03550754
0.013556282 0.012901271 -0.034616552 0.017371042 0.03371911 0.0063322145 -0.012911722 -0.022848126
0.8206264 -0.0041484684 0.530063 -0.83890516 0.4637842 0.38378668 0.17812525 0.4045121
-1.2445569 -0.32139596 -1.146541 0.8687037 -0.10528101 0.23963434 -0.9357981 0.3493698
0.13040087 0.5717332 0.3547518 -0.3006099 -0.86278564 -0.041211147 0.28697732 -0.5225236
-0.3129278 0.49562714 -0.31848827 -0.25607595 -0.5737952 -0.48582068 -0.37382877 0.04496084
-0.077507906 0.586303 0.2982004 -0.20732826 -0.5143382 -0.37244457 0.5317363 -0.50013274
-0.04977608 0.3702719 0.2201015 -0.3078302 -0.8072129 -0.27600223 0.054087456 0.1029753
-0.2008726 0.3294986 0.29020897 -0.17004418 -0.626828 -0.65205234 0.1026971 -0.3998903
0.051830098 0.35313308 0.04259222 -0.62355566 -0.7321573 -0.4895104 0.03600725 -0.3050339
-0.09648926 0.44553158 0.2432065 -0.3855773 -0.73074263 -0.432111 0.39530388 -0.46048874
-0.16702618 0.5466329 -0.39412144 -0.62099564 -0.9381255 -0.43809623 -0.16281603 -0.16092168
0.4152957 -0.4504059 0.51593107 -0.5023366 0.038114794 -0.1424827 -0.05705275 0.14735346
-0.88378817 -0.11144531 0.6472215 -0.01813732 0.40453607 -0.43882167 -0.5017206 0.37666333
0.044672165 0.22556369 0.08137399 -0.29208913 -0.43223327 -0.13648947 0.5898874 -0.07037019
-0.19139926 0.1426071 -0.09936067 -0.32357684 -0.19822395 -0.7902517 -0.4073203 0.090680055
-0.18506697 0.61312336 0.2826366 -0.17477514 -0.7877744 -0.6096955 0.116476946 -0.44632128
-0.12921605 0.5622043 0.35084215 -0.7600252 -0.74441063 -0.58316666 -0.038444437 -0.3855908
-0.05489493 0.6490652 0.15424336 -0.009116125 -0.8883377 -0.6548269 0.85042036 -0.58266026
0.055953026 0.51371205 0.0597277 -0.7224308 -0.9546577 -0.28475648 -0.041184977 -0.45113093
0.61556894 0.2616538 0.6058655 -0.52584213 -0.652766 -0.34472942 0.83926946 0.30435613
-0.7642664 0.15527566 0.12099627 0.05801068 -0.34581682 -0.83967876 -0.14855032 0.19416828
0.5551332 0.04315145 0.43205234 -0.7038841 -0.27489316 0.014427356 0.5525114 0.34180173
-0.25162572 0.018890355 -0.89869004 0.11686682 -0.06527328 -0.7975877 -0.55864155 0.74440515
-0.38474292 0.631718 0.0845199 0.05412739 -0.7510376 -0.7268857 0.5737352 -0.35436472
0.08313923 0.4267578 0.18273406 -0.76635903 -0.8196391 -0.23757356 -0.01998331 -0.59816
0.04445752 0.11631073 0.25639513 -0.21363987 -0.3868791 -0.16441348 -0.05243584 -0.09878215
-0.08642487 0.12486457 0.28322512 -0.21901846 -0.16513896 -0.23743051 -0.2554633 -0.008197223
0.10236648 -0.13296656 0.372233 -0.26495597 -0.012637808 0.0007694541 -0.30727682 0.017872391
-0.10846265 0.13039064 -0.078589156 -0.048198022 0.050465547 -0.3964564 -0.03136722 -0.026235394
-0.067357205 0.69933873 0.1697918 -0.111514956 -0.7923743 -0.77194154 0.7800954 -0.5730186
-0.1392449 0.6333444 0.17906712 -0.9835092 -0.8535448 -0.52512383 0.11445073 -0.59348094
00000000: 3688 a93c d998 69bc d753 9b3c 7cad 113d
00000010: 4ea8 113d c76c 7fbb df35 9b3b 5b70 113d
00000020: 2b1b 5e3c da5f 533c 16ca 0dbd b74d 8e3c
00000030: 0d1d 0a3d 777e cf3b b08b 53bc fe2b bbbc
00000040: 9214 523f e0ef 87bb 35b2 073f 7dc2 56bf
00000050: 1f75 ed3e b07f c43e 7766 363e 361c cf3e
00000060: a44d 9fbf 038e a4be dbc1 92bf 5e63 5e3f
00000070: 929d d7bd b462 753e 7790 6fbf 99e0 b23e
00000080: ce87 053e 1b5d 123f 07a2 b53e 8ae9 99be
00000090: 85df 5cbf 05cd 28bd b1ee 923e 1bc4 05bf
000000a0: 1338 a0be d7c2 fd3e e510 a3be 631c 83be
000000b0: 3ee4 12bf 7dbd f8be 7c66 bfbe dc28 383d
000000c0: 77bc 9ebd f417 163f b9ad 983e dc4d 54be
000000d0: abab 03bf 0eb1 bebe df1f 083f b308 00bf
000000e0: 01e2 4bbd 4794 bd3e 4a62 613e ec9b 9dbe
000000f0: 81a5 4ebf 2a50 8dbe cf8a 5d3d b7e4 d23d
00000100: 8cb1 4dbe 0ab4 a83e 4596 943e 1020 2ebe
00000110: cd77 20bf e7ec 26bf db52 d23d 6cbe ccbe
00000120: cc4b 543d dccd b43e 2e75 2e3d 58a1 1fbf
00000130: a96e 3bbf 1ba1 fabe 577c 133d 672d 9cbe
00000140: 299c c5bd b71c e43e 200b 793e 636a c5be
00000150: f311 3bbf a73d ddbe 4565 ca3e 2ec5 ebbe
00000160: e908 2bbe 22f0 0b3f 49ca c9be 92f9 1ebf
00000170: fe28 70bf 264e e0be 3fb9 26be a7c8 24be
00000180: a3a1 d43e 9a9b e6be 0f14 043f 2299 00bf
00000190: 421e 1c3d fce6 11be 25b0 69bd d3e3 163e
000001a0: f13f 62bf 703d e4bd 4fb0 253f b894 94bc
000001b0: 5a1f cf3e 3cad e0be c370 00bf 04da c03e
000001c0: 29fa 363d 2bfa 663e 68a7 a63d b58c 95be
000001d0: ae4d ddbe e5c3 0bbe dc02 173f 3f1e 90bd
000001e0: 2bfe 43be 9807 123e 9b7d cbbd ddab a5be
000001f0: 38fb 4abe ef4d 4abf 498c d0be 77b6 b93d
00000200: 3282 3dbe a7f5 1c3f bfb5 903e 41f8 32be
00000210: 95ab 49bf 0115 1cbf 778b ee3d 3984 e4be
00000220: 3651 04be 9fec 0f3f 95a1 b33e 0391 42bf
00000230: b291 3ebf 694a 15bf ea77 1dbd 286c c5be
00000240: 82d9 60bd 2329 263f f9f1 1d3e cd5b 15bc
00000250: 196a 63bf bca2 27bf 26b5 593f 3929 15bf
00000260: 002f 653d a282 033f 08a5 743d 3af1 38bf
00000270: 7264 74bf 9acb 91be 94b1 28bd a2fa e6be
00000280: ed95 1d3f 7df7 853e 001a 1b3f 979d 06bf
00000290: ac1b 27bf 6080 b0be 5dda 563f 91d4 9b3e
000002a0: f6a6 43bf 9500 1f3e e4cc f73d 9b9c 6d3d
000002b0: e70e b1be 30f5 56bf 931d 18be 0dd4 463e
000002c0: 361d 0e3f 93bf 303d f735 dd3e c031 34bf
000002d0: ccbe 8cbe b860 6c3c 6371 0d3f a300 af3e
000002e0: 16d5 80be f2bf 9a3c 8d10 66bf df57 ef3d
000002f0: ffad 85bd b52e 4cbf 2203 0fbf 5691 3e3f
00000300: 06fd c4be 45b8 213f c518 ad3d afb4 5d3d
00000310: 0044 40bf 2e15 3abf 4fe0 123f 4b6f b5be
00000320: e744 aa3d 0080 da3e a31e 3b3e 1b30 44bf
00000330: ded3 51bf 7c46 73be 0ab4 a3bc 0421 19bf
00000340: 1719 363d 5234 ee3d 3946 833e 69c4 5abe
00000350: 0415 c6be 025c 28be f7c6 56bd 4c4e cabd
00000360: 86ff b0bd ffb8 ff3d e202 913e 6046 60be
00000370: 301a 29be fc20 73be 16cc 82be a54d 06bc
00000380: 84a5 d13d 6328 08be 5395 be3e 4fa8 87be
00000390: cf0e 4fbc 31b5 493a 6353 9dbe 1f69 923c
000003a0: aa21 debd 2085 053e 5af3 a0bd 4a6b 45bd
000003b0: f6b4 4e3d 55fc cabe ea7a 00bd 9ceb d6bc
000003c0: 93f2 89bd dd07 333f e7dd 2d3e f461 e4bd
000003d0: 0bd9 4abf f69d 45bf 55b4 473f 59b1 12bf
000003e0: 3796 0ebe dc22 223f 5f5d 373e 42c7 7bbf
000003f0: e981 5abf 846e 06bf 2565 ea3d 5eee 17bf
