data_exchange_center/online/triton/ml_rec/1/model/model.onnx (onnx, 687243 bytes, 10 tensors)

linear.fc.weight f4 [10063, 1]
00000000: 59b6 5301 ed8c d63d 1ab9 cabd a612 6c3e
00000010: a2fc 0c3a 3038 a3be 9393 5b3d 0355 8b3d
00000020: 412e c7bc 93ff 7dbe e71f ae3e 2dab 16be
00000030: 64b3 3b3c 8831 9abe 3eeb 28be 7c47 83be
00000040: c93c 30bd f9c8 b33e 4f30 acb9 c70e 35be
00000050: 5eee ed3d 23e5 c6bd b5a7 71be 9c22 1fbf
00000060: d03a 1e3e b94e 523c 58bb b7be 7cf0 133b
00000070: bc49 73bd 705e 9bbe 9aae b1be a908 5bbe
00000080: 474f 46bb efd1 a3be 8731 963c 9ea6 bebd
00000090: a1ff 133f b92b 8a3d 735b 39be b3e2 0cbe
000000a0: 70e3 d9bd 6e22 7dbc 14f3 1e3e f1b5 4d3e
000000b0: 8975 2cbd 4787 3abf a411 653f a861 bdbd
000000c0: a686 2cbf 8940 7dbd 23fb 80be 2c42 133e
000000d0: 8745 9fbc 8817 883f ece9 d23d 1b5c 59bc
000000e0: 35d3 6e3d 8e74 f1bd 9f73 1a3f 8c31 c2be
000000f0: 14a4 b4bd 94ee 75be 6b8a 3bbe 8f24 bcbd
00000100: fe38 783e 3c47 0c3f 7dfc b63c 2c79 503e
00000110: 1dff a1bc 5664 cb3e f995 6aba 7c7f fd3d
00000120: e346 113d 52b3 b8bc 7ff5 b03d e8a4 4e3f
00000130: 7bd2 033f c288 73be cc44 223d 403c 6dbd
00000140: a04d 3f3e 6f85 ab3e a561 0f3e af2e ae3d
00000150: c6df dfbc 72ec 52bd 365e 883e 3d66 9fbe
00000160: cacb 823d 249f c7ba 9188 57be 9162 bc3e
00000170: 0742 20bf b193 febd b8c0 d13d fa1f 18be
00000180: 322f 9abe 6647 b13e ecfb cdbd e285 d7be
00000190: 87e4 ecbe 5f05 1f3f d93d 8cbe 2f4f ea3e
000001a0: 2a2e 5b3d c3ef 1b3e f7b0 c43d a77e 55be
000001b0: c484 afbd 4bd2 9e3e e750 05bd db48 67be
000001c0: 9c5a 113b 2194 553c b5de 823e 495f 103e
000001d0: 2cfb d53e 07a2 0ebe d790 9bbc 75a7 f83c
000001e0: 331d 6ebe 745e df3e 3ca6 04bb 6212 ebbd
000001f0: eae2 2a3e 7606 573e a767 e13d aad3 8abe
00000200: 7874 dd3d d795 493a 3be4 a03e e524 57be
00000210: 7e4a 7a3d fdb7 823e dc28 13bd b9b9 e53d
00000220: bf0b d23c ebeb d2bd 4623 d43e 12d9 06be
00000230: 06f8 14bc bf93 ecbd e45c 2abe 21d7 7cbe
00000240: 353b e8bc 4639 48be 39aa a0be 3168 57be
00000250: 22e1 963c 83ef c23e 0e40 d33e cfb4 f53d
00000260: 7a56 8d3e 171a 743e 4d6a 71be 3060 d9bd
00000270: f177 3b3f a7ec 2c3e 2558 bd3d dd57 803b
00000280: 738b 98bc fe5d 4c3f 70d6 553e c63b 2d3c
00000290: cd1d fb3d 6dbb 613e bce1 a6bd f4d5 2bbe
000002a0: 28a8 1f3e 0e08 80be 9283 0a3e 64c0 c33c
000002b0: f9c5 cabc fab3 383d 00f7 09bd f752 ce3e
000002c0: 50c7 9ebb 6981 513d a2b6 68bc 0ba2 8fbe
000002d0: a9d4 f33c 402c 4c3e b07d e03d 5769 683e
000002e0: ef01 763d 2e8b b4bd 49f1 023f eee7 873e
000002f0: 6302 52be 041b c03c 5589 3fbe f1a6 253d
00000300: 63e5 9dbe a06f 8ebe 57d4 e33e 3b49 2e3f
00000310: ebbc 76bd 013f cc38 b17e f9bd 0a07 5abd
00000320: 9bb0 d23d 5709 213e 3b3b 80be ba03 0bbf
00000330: 0aba 55be 1cc3 d83d 0ef9 52be 574a d63d
00000340: da09 f7bd 1e11 3ebd e3fc e73e d829 4d3e
00000350: 68ac 703e dbe6 a43d 64ca a1bd 2b36 ac3e
00000360: 67ff 99be d791 35bd f32b c8bd 1d78 8dbe
00000370: 7067 e03d 67e4 21be ec0d b13e bbd4 9abd
00000380: 6025 99be 9d8a 64be 9782 e0bd 2827 57bd
00000390: d04a 5e3e 62aa b6bd 6bb4 9c3e 1331 c53e
000003a0: db9c bc3d 732c 833e 8dc0 3d3e d5a5 c73e
000003b0: c45f 44be fb19 a7bc b3b0 59bd a7a3 ab3d
000003c0: 1d58 8abe 0d66 d33d 254f c6be faf6 a8bd
000003d0: 817f 433e ea95 003f 464c f03c 0895 2fbe
000003e0: 5245 0f3e 8a7f b13d 047c 8bbd 196e 1dbe
000003f0: 191c bf3e c2a4 c93e 214a 123e 24b5 393f
3.8885407e-38 0.10476098 -0.098985866 0.23053989 0.00053782214 -0.31878805 0.053607535 0.06803324
-0.024314048 -0.24804525 0.34008715 -0.14713736 0.011456344 -0.30115914 -0.16495988 -0.25640476
-0.04302672 0.35114267 -0.0003284239 -0.17681418 0.116177306 -0.09711673 -0.23599131 -0.62162185
0.15452123 0.012836152 -0.3588512 0.002257376 -0.05939649 -0.30345488 -0.34703523 -0.21390022
-0.0030259655 -0.31996104 0.018334163 -0.093091235 0.57811934 0.06746621 -0.18101291 -0.13758354
-0.106390834 -0.015450103 0.15522414 0.20088936 -0.042104278 -0.72862667 0.8948004 -0.09247142
-0.6739296 -0.061829124 -0.25191602 0.14380711 -0.019442333 1.0632181 0.10298523 -0.013266589
0.05830689 -0.11789809 0.60332674 -0.37928426 -0.08820358 -0.24016792 -0.18314521 -0.091866605
0.24240491 0.54796195 0.022337193 0.20358723 -0.019774968 0.39724988 -0.0008948739 0.12377831
0.035467993 -0.022546444 0.08640575 0.80720377 0.5149304 -0.23782638 0.03961639 -0.057918787
0.18681955 0.3350024 0.14002092 0.08504998 -0.027328383 -0.051495023 0.26634377 -0.3113269
0.06386526 -0.0015229923 -0.2104819 0.3679395 -0.6260075 -0.12430514 0.10241836 -0.14855948
-0.30114132 0.34624785 -0.10057816 -0.42094332 -0.46268103 0.6211757 -0.27390936 0.45763537
0.053510822 0.1522818 0.09604066 -0.20849095 -0.08570245 0.31019816 -0.032547858 -0.22586386
0.0022179252 0.013035805 0.25560537 0.14098848 0.4179319 -0.13928996 -0.018989963 0.030353287
-0.23253326 0.4362675 -0.0020240685 -0.114781156 0.16688123 0.20998558 0.11006098 -0.27114612
0.1081323 0.00076898694 0.31424126 -0.21010168 0.061106198 0.25530997 -0.03592764 0.112170644
0.025640367 -0.10298904 0.41433161 -0.13168743 -0.0090923365 -0.11551618 -0.16636997 -0.2469144
-0.028348545 -0.19553098 -0.3137987 -0.2103584 0.018417899 0.38073358 0.41259807 0.11997377
0.2760504 0.23838077 -0.23575707 -0.106140494 0.7322989 0.1688715 0.09245328 0.003916724
-0.018621182 0.7983092 0.20882583 0.010573333 0.122615434 0.22044154 -0.08148524 -0.16780835
0.1559149 -0.25006145 0.13526753 0.02389545 -0.024752604 0.045093514 -0.033682823 0.40297672
-0.0048455372 0.051148806 -0.014203699 -0.28053316 0.02976449 0.19938755 0.10961473 0.22696434
0.060060438 -0.08815609 0.5114942 0.26544136 -0.20508723 0.023450382 -0.18704732 0.04044241
-0.3083907 -0.27819538 0.4449794 0.6808049 -0.06023876 9.7392134e-05 -0.121823676 -0.05322937
0.10287591 0.15726219 -0.2504519 -0.5430256 -0.2087175 0.10584089 -0.2060282 0.10463398
-0.12062426 -0.046403043 0.45310125 0.20035493 0.23503268 0.08051845 -0.07899931 0.33635077
-0.3007767 -0.044328537 -0.09774008 -0.27630702 0.10957229 -0.15809785 0.34580934 -0.07560106
-0.29911327 -0.22318502 -0.10962408 -0.052527577 0.21708226 -0.08919217 0.30606398 0.38514003
0.09209605 0.2561985 0.18530484 0.38993707 -0.19177157 -0.02039813 -0.05314703 0.083808236
-0.2702035 0.10322199 -0.38732257 -0.08250232 0.19091608 0.5022875 0.029333245 -0.17146695
0.13991287 0.08666904 -0.068107635 -0.1537403 0.37326124 0.39383513 0.1428609 0.72542024

embedding.embedding.weight f4 [9994, 16]
00000000: f800 2a01 3cde ed00 317e 9201 5860 d280
00000010: 882c 6500 7092 5f00 78c0 2a00 301f 7d00
00000020: b8e1 9600 a4ae 3401 10bc 5481 0b9e a881
00000030: 4855 af01 c455 f680 50f9 2300 ae0c a101
00000040: edf9 16bd 2bc9 7c3c 26c9 9ebd 573b 81bd
00000050: 87f6 bfbd f12a c5bd 16fb e33b c637 abbd
00000060: cfa5 28be 2621 293e 5f16 eeb6 640c 1a3e
00000070: 0068 3c3c fb0a c9bc a0ea 10bd 6a64 0bbe
00000080: 3b3f 80be 5c3b cabe fcd9 16bc b1df 4f3e
00000090: b9e5 e2bc cea6 173e 1f3e 573d 5dfc 1fbe
000000a0: a14e 40be c747 1f3d a7e8 063e d55a f0bd
000000b0: 9849 4ebe 4b4c bcbd 2554 99bd 0f56 4ebe
000000c0: fffc 29be 36a6 fdbc 45ae 16bd 704c 313e
000000d0: afe1 8fbc 7391 62bc 74a6 ca3d 9766 383c
000000e0: 9f95 8cbd 66d0 643e bd77 f73d 638f 423d
000000f0: 07fc 07be 3110 563e 65d0 f6ba 828d 47bd
00000100: f976 1f3e e31d 86bb 928f 033d db8a 89bd
00000110: 2d63 43be 2d11 48bd 7246 223e 7941 c8bc
00000120: ef2c 54bd 0da0 33bd a711 93bc b901 a43d
00000130: bbb4 3b3d d41b f4bd 97ac 943d 9763 53be
00000140: 6045 6b3e 5908 023e 4152 2e3e c187 02be
00000150: 232d a63e cc0b 9cbe 937b 10be 8913 9fbd
00000160: a21d ee3e 02dd 4f3d 6f94 d93d 3b83 d1be
00000170: bce3 6a3e 4d96 46be f81e 3b3e 8e95 263f
00000180: b14b b0bd 1e1f 9dbd 1774 f5bd cab5 81bd
00000190: c298 8fbd 7df9 e1bd 0ca7 4d3e f607 babe
000001a0: c713 d53d 41e6 2abe d58b e43b 8276 2bbe
000001b0: 1be3 6fbe 5a3e 873e 38ce 193e 18c9 b4bd
000001c0: 4ddd a4bd 15fc 343c 5e44 a73c 011f 7b3d
000001d0: 18fb 02be 5690 2ebd 1166 3dbc b2a3 cebc
000001e0: 71c9 c53a 58da 243e 79fa d5bd 0483 c33d
000001f0: 86f2 2a3c ff64 73bd 9412 b83d e294 b53b
00000200: 0659 62bd 1bfe 673d 91d3 c53e 23a1 24be
00000210: 641a 8fbb dcaa fa3c be3d 5abe 9572 8f3e
00000220: 280c b7bd d23f d83d b09c 6fbe f222 b83c
00000230: d6f3 493e bd6e 983b 832b 973d 82db 383d
00000240: ec78 9dbd f7dd c2bd 6365 003e 2e9d 7fbd
00000250: b2da 1f3d c6ef 1cbe 042d 03be e713 253e
00000260: f8e8 c23d d7c0 893e 2520 68be 5132 aebd
00000270: 0ea1 063e 051c 053d eee7 24be 1c78 4a3e
00000280: cd71 abbe c53e 593e 5356 943d 69c3 5ebe
00000290: 0b60 acbe 807e 2c3e fce5 d0bd 76f9 9fbe
000002a0: 7106 0bbf 1783 11be 66e1 173e d758 cdbe
000002b0: b1c5 07bf a4f0 4a3c 0f6c c63d da92 ecbd
000002c0: 17b6 233d 975e 16bd 0dd5 8c3e a116 253e
000002d0: 46a9 dc3d f94a 46bc 667c 583d 8ede 9cbd
000002e0: 7546 623e 0e3e c5bd 33ec 28be 1cf7 43be
000002f0: 1300 7a3e 3c49 d6bd f327 023e 5069 f03e
00000300: 33f3 553d 5bd2 a8bc 0125 bd3c c2f7 b33c
00000310: 0090 6d3c 91a9 00b8 d54f 58bd 8d41 cc3c
00000320: 822f 073d 78c9 a43c f0e1 65bd 3eab 863d
00000330: 2556 db39 9997 65bc ac1b cc3c 8720 213c
00000340: 2b9f fe3c 0d82 09bf 4c31 0e3e e338 333e
00000350: ca4d 05be a711 04be 73ff 8fbe 3f5c 053c
00000360: 17d7 8c3d 2bda 5d3d 8450 083e e4c7 85be
00000370: ba75 813e ddae cdbc f52e f4bd 7135 ab3c
00000380: 9c3a 023e f16a 42bc 2ede 48bc 6530 9fbd
00000390: ef32 f43d a599 bc3d c7ba 26bb 9702 63be
000003a0: f49b 543d 71f7 aa3d 90c3 90bd add4 88bd
000003b0: 05e2 aab7 2304 e23d e34c 253e ebc2 36bd
000003c0: 0116 8dbe cc8c e0be 8c46 51be 7eae 923e
000003d0: 14f1 9dbd c510 5ebb f695 8abb 0153 55be
000003e0: d6e6 263e 8672 783d f480 2cbe 8a40 a93e
000003f0: f4ef e63c 6631 703e 2635 debd e3cd 9abc
3.1224764e-38 2.1844735e-38 5.3813006e-38 -1.9320016e-38 9.29136e-39 8.776904e-39 3.926136e-39 1.1490625e-38
1.3856297e-38 3.3186077e-38 -3.9073179e-38 -6.1940234e-38 6.440722e-38 -2.2622299e-38 3.303679e-39 5.9160254e-38
-0.03685944 0.015428822 -0.0775321 -0.06310146 -0.09373193 -0.09627331 0.006957422 -0.08360247
-0.16469501 0.16516551 -7.095557e-06 0.15043789 0.011499405 -0.024541369 -0.035380006 -0.13612524
-0.2504824 -0.39498413 -0.009207245 0.20300175 -0.02769743 0.14809725 0.052549478 -0.15623613
-0.18779995 0.03888681 0.13174687 -0.11736075 -0.20145261 -0.09194239 -0.074867524 -0.20150016
-0.16600417 -0.030963045 -0.03678729 0.17314315 -0.017563669 -0.013828623 0.0989503 0.011254928
-0.068644755 0.22345123 0.12083385 0.047500025 -0.13279735 0.20904614 -0.0018830417 -0.048718937
0.15572728 -0.0040929182 0.03211934 -0.06715938 -0.19080801 -0.048844505 0.15847185 -0.024445282
-0.051800665 -0.04385381 -0.017952753 0.08008141 0.045826655 -0.1191937 0.072594814 -0.2064346
0.22975683 0.12698497 0.17023565 -0.12747099 0.32456312 -0.3047775 -0.1410964 -0.07767398
0.46506983 0.05074788 0.106240146 -0.40920433 0.22938436 -0.19393273 0.18273532 0.6507195
-0.08608187 -0.07671951 -0.11985033 -0.06333502 -0.07011558 -0.11033914 0.20083255 -0.363342
0.10404163 -0.16689397 0.006974677 -0.16744426 -0.23426478 0.26414758 0.15020072 -0.08827418
-0.08050022 0.011046429 0.020418342 0.061308865 -0.12791097 -0.04261812 -0.011559979 -0.02522454
0.0015089941 0.16098917 -0.104481645 0.095464736 0.010433799 -0.05942249 0.089879185 0.00554143
-0.05526068 0.05663882 0.38637975 -0.16077094 -0.0043671597 0.03059905 -0.21312615 0.28017107
-0.089378655 0.10559048 -0.23399615 0.0224776 0.19721922 0.004651873 0.07381346 0.045131214
-0.0768908 -0.09514993 0.12538676 -0.062405758 0.039026923 -0.15325841 -0.12810141 0.16120873
0.095170915 0.26904938 -0.22668512 -0.08505691 0.13147375 0.032497425 -0.16104099 0.1977238
-0.3348526 0.21215351 0.072430275 -0.2175423 -0.33667025 0.16845131 -0.10200116 -0.3124501
-0.54306704 -0.14210163 0.14832076 -0.40106842 -0.5303603 0.012386475 0.09688579 -0.11551447
0.039968576 -0.0367113 0.27506295 0.16121913 0.10774474 -0.012102836 0.05285301 -0.076596364
0.2209719 -0.096309766 -0.16496353 -0.19137233 0.24414091 -0.10463187 0.12710552 0.46955347
0.052233886 -0.020608118 0.023088934 0.021968726 0.014499664 -3.06755e-05 -0.05281051 0.0249336
0.03300429 0.020115599 -0.056123674 0.065756306 0.00041835118 -0.0140131945 0.024915539 0.009834415
0.031081757 -0.53714067 0.13885993 0.1750217 -0.13017955 -0.12897359 -0.2812458 0.008139669
0.06876963 0.05416314 0.13311964 -0.26129067 0.2528513 -0.025107795 -0.11923019 0.020899506
0.1271767 -0.011866317 -0.012260003 -0.077729024 0.11923777 0.09208993 -0.0025440918 -0.22168957
0.05190654 0.08347977 -0.070685506 -0.0668119 -2.0370828e-05 0.11035945 0.16142611 -0.044619482
-0.2755585 -0.4385742 -0.20437068 0.28648752 -0.07711998 -0.0033884507 -0.0042293025 -0.20832445
0.16298994 0.060656093 -0.16846067 0.33057052 0.02819059 0.23456344 -0.10849981 -0.018897003

embedding_side.embedding.weight f4 [69, 2]
00000000: 34d3 3100 5439 a701 e2d1 91be 5e50 fc3e
00000010: bb88 c6ba 0323 f53e a86b 9600 d873 a701
00000020: 4830 ba3e 03ba 0dbe 6c4d bdbc 7c51 ed3e
00000030: 6761 2f3e 7d75 2a3e 8ccc a43e d0ae 70bd
00000040: 045b 863e 6afb 203c 5ee1 9c3e 6710 c63d
00000050: 25eb 693e 5668 843e ac44 3401 26dd 5201
00000060: c7b0 ad3e 51c2 97be dd3a c33c 382f f23d
00000070: 8fb5 4d3e 21d3 81be 6b7f f53c 41c6 933e
00000080: 9dd3 733e d9aa 28be c5b1 cf3d a687 903c
00000090: c209 86bd 93d8 ff3d 8443 1dbe 4639 cb3e
000000a0: efd5 273d 0361 57be f5c8 e33d e3a3 ae3e
000000b0: 6314 81be d768 5b3e 0198 bd3e 5a68 cbbe
000000c0: 85a7 41bd 179a ef3d 4122 ad3e 7126 14bf
000000d0: 5741 8fbc 8fc2 6f3e b019 5a3e a655 7ebe
000000e0: 8a5e f23e 153f e2be cb8b 2cbb 7a25 5e3e
000000f0: ee98 123e 2ee9 923d bdec 3cbe 2743 ae3e
00000100: 8803 693e f385 8ebe dd24 4a3e 3a5a a7be
00000110: 069c 863e cdbc 38be 9dbe b73e 9940 9dbd
00000120: 6e79 043f 956c 833d bc49 84be 8393 d73e
00000130: 0573 04bf 458d fa3e ec7d 64bd 1a96 fc3e
00000140: 0e58 e53e 714a 263f 898c cabe 7c63 2f3e
00000150: b084 47be 018e d03e 6920 be3e abdc 203e
00000160: 1269 a33e 64bc 153e 3f94 913e cfa9 003f
00000170: bdde 873d 3003 043f 67b8 ee3b 1d5c 273d
00000180: f136 513e b49f 8a3e 2903 96be a392 ccbe
00000190: 1ff4 573d f41b afbc a4d9 4e3e 0dc0 a8be
000001a0: 86cb 243e 4e55 e4bc 57dc 5abd 0e83 2cbd
000001b0: 221b 153e fd68 173e e596 84be 4012 c5be
000001c0: 8f6e fe3e ae4f e53d c6d3 823e 3f00 e1be
000001d0: cec1 de3d 8222 15bf 07b5 c7be 2c6b 513e
000001e0: 96c5 34bd a08f dd3e 2a2f a4be 4193 abbe
000001f0: 5e0c 05be bce1 6dbe ca3b afbe fe8a 973e
00000200: 3cc8 a7be cfc6 ab3e db8f a2be 2bd4 0a3f
00000210: ab9e 62be ddcd 1e3f a915 f03e 238a 1dbe
00000220: a189 99bd 987f e7be
4.575705e-39 6.1428373e-38 -0.2848044 0.49280065 -0.001514695 0.47878274 1.3813944e-38 6.151234e-38
0.3636496 -0.13840489 -0.023108207 0.4635123 0.17127 0.1664638 0.32187307 -0.058760464
0.26241314 0.009825567 0.30640692 0.09671097 0.22843607 0.25860852 3.3110048e-38 3.8729575e-38
0.33923933 -0.2964044 0.02383178 0.118254125 0.2008879 -0.2535639 0.029967984 0.28862193
0.23811193 -0.16471423 0.10141329 0.017642807 -0.0654483 0.1249248 -0.15357786 0.39692134
0.040975507 -0.21033101 0.11122314 0.3410941 -0.25210866 0.21426712 0.37030032 -0.3972805
-0.0472789 0.11699312 0.33815196 -0.57871157 -0.017487211 0.23414062 0.21298862 -0.2483736
0.47337753 -0.44188753 -0.002632844 0.21693984 0.1431615 0.07173382 -0.18449683 0.34035608
0.22755253 -0.2783657 0.19740625 -0.32686025 0.2629091 -0.18040772 0.35887614 -0.07678337
0.51747787 0.06417195 -0.25837505 0.4210473 -0.51738006 0.48935905 -0.05578415 0.49333268
0.44793743 0.6495734 -0.39560345 0.17127794 -0.1948421 0.4073334 0.37134102 0.15709178
0.319161 0.14622647 0.28433415 0.5025911 0.06634281 0.51567364 0.007285166 0.04085933
0.20431115 0.2707497 -0.29299286 -0.39955625 0.052723046 -0.021375634 0.20200211 -0.32959023
0.16093263 -0.027872708 -0.05343279 -0.04211717 0.14561132 0.14786144 -0.25896373 -0.38490486
0.49693725 0.11196838 0.25552195 -0.439455 0.10876809 -0.5825578 -0.390053 0.20451039
-0.044133745 0.4327364 -0.32067233 -0.33510783 -0.12992999 -0.23230642 -0.34225303 0.2959823
-0.32769954 0.33550116 -0.31750378 0.5422999 -0.2213084 0.6203287 0.46891525 -0.15384726
-0.07496954 -0.45214534

mlp_dense.mlp.0.weight f4 [4, 36]
00000000: eba6 d63d 8e9b 03bf 570c 9ebd fded a9be
00000010: cad8 3f3a e224 9bbd a101 e43d 36ef 4bbe
00000020: d3c9 003e 3e58 1abf f4ac bc3a 77cf eebc
00000030: 0b97 8c3d 2ad0 f2bd c1cc 133e 006f 14bf
00000040: 5041 14be 5192 52bd cf6e 9dbc 6e14 623c
00000050: cc94 8d3d 90ee 9bbe a1db 16bc 0ec5 bdbd
00000060: 71f0 873c 0bd8 093b 38c2 60bc 294f c0bd
00000070: 09a2 923c b63e 05be 280e f238 0bc1 67be
00000080: 7840 67bc 206e 26be cd33 dc3b 48ef 43be
00000090: baac 22be cb6d 7a3e 567c 01bc 8166 823d
000000a0: ea0c 15bd d529 973c c979 92bd c0e2 2d3e
000000b0: b68e 7dbe 6d4b ac3e 1c40 91be d2a4 613e
000000c0: 6a11 d7bd 6bef 0e3e 7c35 e6be 3124 283f
000000d0: ff34 72bd e9f5 a73d 8fec d9bd c683 293e
000000e0: facf 15be 9a5e 873e 0169 d63c 89b6 6d3d
000000f0: 8ab9 07be 9f9a 073e 3fe8 b5bd 40b8 ec3d
00000100: 037b b43c 6b23 833d 90e4 88be 9e20 9d3e
00000110: d1cc b5bd dbdd 8e3d 6cfb c7bb 7686 c53d
00000120: d3ca 11be c929 443e bb03 90bd d016 f63d
00000130: 912a 71bd 5c70 5c3c a524 79bc 9724 113e
00000140: 1f20 5ebe 89b3 a63e b78c a63d bc63 1ebd
00000150: d350 27be 731b 6d3e 0526 1dbf 4eb2 363f
00000160: bfe2 f8bb 59cb f23b 2991 89bd e708 e53d
00000170: a29f 7dbd 1818 233e 8ac9 8bbe 3426 733e
00000180: 5bbc e7bc 1bde bd3c de76 9cbd cbdd 033e
00000190: 645c 743c b313 6a3d 50ed fcbd d9f9 203e
000001a0: 5a1f ddbd 2e07 003e dbd8 7ebe f0aa 683e
000001b0: 3c95 28bd d9e3 29be eb25 48bb a09e efb7
000001c0: 0495 aabd c71f f6bc a95b 923d f908 3dbe
000001d0: 8ea1 3b3e b190 1cbf 4fb4 663d 67d7 36be
000001e0: 68b0 243d 4a9d 71be 642f 133e d64e 12bf
000001f0: 00e6 fabc eed3 a73c 052f a33a c0a5 18bf
00000200: 21ff a13d e8bc abbe 8883 ba3d f011 55be
00000210: b396 a1bc 5845 70bd cc80 eebc ad2b d43b
00000220: 0056 9abc 9de4 38be 21e3 063e 43ec 98be
00000230: 8d22 023d ca17 233d 1b1a 423d 9f16 bdbd
0.10481056 -0.5140923 -0.077171974 -0.33189383 0.0007318376 -0.07575394 0.11133123 -0.1991547
0.1257699 -0.60290897 0.0014394806 -0.029151661 0.06864747 -0.118561104 0.14433576 -0.5798187
-0.1447804 -0.05140907 -0.019217877 0.013798816 0.069131464 -0.30455446 -0.009207637 -0.09266101
0.016594144 0.0021033313 -0.01371818 -0.093900986 0.01789953 -0.13012204 0.00011542096 -0.22632234
-0.014114492 -0.16252947 0.0067200423 -0.19134247 -0.15886202 0.24455945 -0.007903179 0.06367207
-0.03638927 0.018452564 -0.07152135 0.1698103 -0.24761471 0.33651295 -0.28369224 0.2203553
-0.10501368 0.13958518 -0.4496268 0.65680224 -0.059132572 0.082012005 -0.10640823 0.16554174
-0.14630118 0.26439363 0.026173117 0.058035407 -0.13254371 0.13242577 -0.08882188 0.115585804
0.022031313 0.0640324 -0.2673688 0.30688947 -0.08876956 0.06975909 -0.00610297 0.09644787
-0.14237528 0.19156565 -0.070319615 0.1201607 -0.058878485 0.013454523 -0.015206491 0.14174114
-0.2169194 0.3255885 0.08132308 -0.038669333 -0.16339426 0.23155002 -0.6138614 0.7136582
-0.0075953896 0.007409495 -0.0671714 0.111833386 -0.061919816 0.1592716 -0.273022 0.23745042
-0.028288057 0.023177197 -0.076398596 0.12877576 0.014914606 0.057147693 -0.12349951 0.1572031
-0.107969955 0.12502739 -0.24887411 0.22721457 -0.041157946 -0.16590823 -0.003054018 -2.8564886e-05
-0.08329204 -0.03004445 0.07146389 -0.18460454 0.18323347 -0.6115828 0.0563243 -0.17855607
0.040207297 -0.23595157 0.14373547 -0.57151544 -0.03062725 0.020486798 0.0012449926 -0.59627914
0.0790999 -0.33542562 0.09107119 -0.20807624 -0.01972518 -0.05865988 -0.02911415 0.006474933
-0.018839836 -0.18055959 0.1317258 -0.29867753 0.03177123 0.03981761 0.047388177 -0.0923283

mlp_dense.mlp.0.bias f4 [4]
00000000: 4eda ab37 80f3 f1b6 fa79 92b7 c0cb dc37
2.0486445e-05 -7.210707e-06 -1.7461356e-05 2.6320922e-05

mlp_dense.mlp.1.weight f4 [4]
00000000: 4d4a 663f ea47 213f 4075 2d3f 272d 613f
0.89957124 0.6300036 0.67757034 0.8795952

mlp_dense.mlp.1.bias f4 [4]
00000000: b143 6abe 8e84 993d 02bf c2bc bf30 67be
-0.22877385 0.07495986 -0.02377272 -0.22577189

mlp_dense.mlp.1.running_mean f4 [4]
00000000: 1f91 013d b63d d8bb d93b 14bd 7097 5a3b
0.03163254 -0.0065991534 -0.036189888 0.0033354424

mlp_dense.mlp.1.running_var f4 [4]
00000000: 4e4b d63f 9baa 533f ee37 273f 2b8b c63f
1.6741731 0.826822 0.65319717 1.5511221

mlp_dense.mlp.4.weight f4 [1, 4]
00000000: eb15 3ebe 7144 4e3e 52e8 563e 3dd3 58be
-0.18563049 0.20143296 0.2098706 -0.21174331
